…
============================================================================================================================================================================================================================
Layer (type:depth-idx)                        Input Shape               Output Shape              Param #                   Param %                   Kernel Shape              Mult-Adds                 Trainable
============================================================================================================================================================================================================================
VisionTransformer                             [8, 3, 32, 32]            [8, 10]                   64                          0.02%                   --                        --                        True
├─Conv2d: 1-1                                 [8, 3, 32, 32]            [8, 64, 4, 4]             12,352                      3.93%                   [8, 8]                    1,581,056                 True
├─Encoder: 1-2                                [8, 17, 64]               [8, 17, 64]               1,088                       0.35%                   --                        --                        True
│    └─Dropout: 2-1                           [8, 17, 64]               [8, 17, 64]               --                             --                   --                        --                        --
│    └─Sequential: 2-2                        [8, 17, 64]               [8, 17, 64]               --                             --                   --                        --                        True
│    │    └─EncoderBlock: 3-1                 [8, 17, 64]               [8, 17, 64]               49,984                     15.91%                   --                        266,752                   True
│    │    └─EncoderBlock: 3-2                 [8, 17, 64]               [8, 17, 64]               49,984                     15.91%                   --                        266,752                   True
│    │    └─EncoderBlock: 3-3                 [8, 17, 64]               [8, 17, 64]               49,984                     15.91%                   --                        266,752                   True
│    │    └─EncoderBlock: 3-4                 [8, 17, 64]               [8, 17, 64]               49,984                     15.91%                   --                        266,752                   True
│    │    └─EncoderBlock: 3-5                 [8, 17, 64]               [8, 17, 64]               49,984                     15.91%                   --                        266,752                   True
│    │    └─EncoderBlock: 3-6                 [8, 17, 64]               [8, 17, 64]               49,984                     15.91%                   --                        266,752                   True
│    └─LayerNorm: 2-3                         [8, 17, 64]               [8, 17, 64]               128                         0.04%                   --                        1,024                     True
├─Sequential: 1-3                             [8, 64]                   [8, 10]                   --                             --                   --                        --                        True
│    └─Linear: 2-4                            [8, 64]                   [8, 10]                   650                         0.21%                   --                        5,200                     True
============================================================================================================================================================================================================================
Total params: 314,186
Trainable params: 314,186
Non-trainable params: 0
Total mult-adds (M): 3.19
…
