…
============================================================================================================================================================================================================================
Layer (type:depth-idx)                        Input Shape               Output Shape              Param #                   Param %                   Kernel Shape              Mult-Adds                 Trainable
============================================================================================================================================================================================================================
VisionTransformer                             [8, 3, 32, 32]            [8, 10]                   --                             --                   --                        --                        True
├─ModuleList: 1-1                             --                        --                        --                             --                   --                        --                        True
│    └─Conv2d: 2-1                            [8, 3, 32, 32]            [8, 64, 4, 4]             12,352                      4.40%                   [8, 8]                    1,581,056                 True
├─Encoder: 1-2                                [8, 16, 64]               [8, 16, 64]               1,024                       0.37%                   --                        --                        True
│    └─Dropout: 2-2                           [8, 16, 64]               [8, 16, 64]               --                             --                   --                        --                        --
│    └─Sequential: 2-3                        [8, 16, 64]               [8, 16, 64]               --                             --                   --                        --                        True
│    │    └─SpectralBlock: 3-1                [8, 16, 64]               [8, 16, 64]               41,536                     14.81%                   --                        528,896                   True
│    │    └─SpectralBlock: 3-2                [8, 16, 64]               [8, 16, 64]               41,536                     14.81%                   --                        528,896                   True
│    │    └─SpectralBlock: 3-3                [8, 16, 64]               [8, 16, 64]               41,536                     14.81%                   --                        528,896                   True
│    │    └─SpectralBlock: 3-4                [8, 16, 64]               [8, 16, 64]               41,536                     14.81%                   --                        528,896                   True
│    │    └─AttentionBlock: 3-5               [8, 16, 64]               [8, 16, 64]               49,984                     17.82%                   --                        266,752                   True
│    │    └─AttentionBlock: 3-6               [8, 16, 64]               [8, 16, 64]               49,984                     17.82%                   --                        266,752                   True
│    └─LayerNorm: 2-4                         [8, 16, 64]               [8, 16, 64]               128                         0.05%                   --                        1,024                     True
├─Conv1d: 1-3                                 [8, 16, 64]               [8, 4, 64]                68                          0.02%                   [1]                       34,816                    True
├─MLP: 1-4                                    [8, 4, 64]                [8, 4, 8]                 --                             --                   --                        --                        True
│    └─Linear: 2-5                            [8, 4, 64]                [8, 4, 8]                 520                         0.19%                   --                        4,160                     True
│    └─Dropout: 2-6                           [8, 4, 8]                 [8, 4, 8]                 --                             --                   --                        --                        --
├─Sequential: 1-5                             [8, 32]                   [8, 10]                   --                             --                   --                        --                        True
│    └─Linear: 2-7                            [8, 32]                   [8, 10]                   330                         0.12%                   --                        2,640                     True
============================================================================================================================================================================================================================
Total params: 280,534
Trainable params: 280,534
Non-trainable params: 0
Total mult-adds (M): 4.27
…
