…
============================================================================================================================================================================================================================
Layer (type:depth-idx)                        Input Shape               Output Shape              Param #                   Param %                   Kernel Shape              Mult-Adds                 Trainable
============================================================================================================================================================================================================================
VisionTransformer                             [8, 3, 32, 32]            [8, 10]                   --                             --                   --                        --                        True
├─ModuleList: 1-1                             --                        --                        --                             --                   --                        --                        True
│    └─Conv2d: 2-1                            [8, 3, 32, 32]            [8, 64, 16, 16]           832                         0.18%                   [2, 2]                    1,703,936                 True
│    └─Conv2d: 2-2                            [8, 3, 32, 32]            [8, 64, 8, 8]             3,136                       0.68%                   [4, 4]                    1,605,632                 True
│    └─Conv2d: 2-3                            [8, 3, 32, 32]            [8, 64, 4, 4]             12,352                      2.69%                   [8, 8]                    1,581,056                 True
│    └─Conv2d: 2-4                            [8, 3, 32, 32]            [8, 64, 2, 2]             49,216                     10.70%                   [16, 16]                  1,574,912                 True
├─Encoder: 1-2                                [8, 340, 64]              [8, 340, 64]              21,760                      4.73%                   --                        --                        True
│    └─Dropout: 2-5                           [8, 340, 64]              [8, 340, 64]              --                             --                   --                        --                        --
│    └─Sequential: 2-6                        [8, 340, 64]              [8, 340, 64]              --                             --                   --                        --                        True
│    │    └─SpectralBlock: 3-1                [8, 340, 64]              [8, 340, 64]              66,112                     14.37%                   --                        2,232,832                 True
│    │    └─SpectralBlock: 3-2                [8, 340, 64]              [8, 340, 64]              66,112                     14.37%                   --                        2,232,832                 True
│    │    └─SpectralBlock: 3-3                [8, 340, 64]              [8, 340, 64]              66,112                     14.37%                   --                        2,232,832                 True
│    │    └─SpectralBlock: 3-4                [8, 340, 64]              [8, 340, 64]              66,112                     14.37%                   --                        2,232,832                 True
│    │    └─AttentionBlock: 3-5               [8, 340, 64]              [8, 340, 64]              49,984                     10.87%                   --                        266,752                   True
│    │    └─AttentionBlock: 3-6               [8, 340, 64]              [8, 340, 64]              49,984                     10.87%                   --                        266,752                   True
│    └─LayerNorm: 2-7                         [8, 340, 64]              [8, 340, 64]              128                         0.03%                   --                        1,024                     True
├─Conv1d: 1-3                                 [8, 340, 64]              [8, 18, 64]               6,138                       1.33%                   [1]                       3,142,656                 True
├─MLP: 1-4                                    [8, 18, 64]               [8, 18, 8]                --                             --                   --                        --                        True
│    └─Linear: 2-8                            [8, 18, 64]               [8, 18, 8]                520                         0.11%                   --                        4,160                     True
│    └─Dropout: 2-9                           [8, 18, 8]                [8, 18, 8]                --                             --                   --                        --                        --
├─Sequential: 1-5                             [8, 144]                  [8, 10]                   --                             --                   --                        --                        True
│    └─Linear: 2-10                           [8, 144]                  [8, 10]                   1,450                       0.32%                   --                        11,600                    True
============================================================================================================================================================================================================================
Total params: 459,948
Trainable params: 459,948
Non-trainable params: 0
Total mult-adds (M): 19.09
…
